Chatbot/data.pth (torch, 3991 bytes, 6 tensors)

l1.weight f4 [8, 34]
00000000: e9d6 eebe 0fb9 cb3e 6ffb 653f 5c24 4f3e
00000010: 7f97 243f ebd6 d63e 2d81 913e 23f9 eebe
00000020: c284 983e 6348 483f 1c3a 643e d66f 163f
00000030: 8472 88bd 0213 ff3e 14df 2f3f d248 873e
00000040: 01b0 37be 565f 0a3f c622 f33e 8e2e 93be
00000050: b983 233f fade e23e 6dd6 3f3f 6930 28bf
00000060: c601 883e d4d5 92be af1f c03e 5291 ba3e
00000070: 1f81 c73e 35e8 043f 332a 433e cb7c d73e
00000080: d8ed 56be b4d2 83be a027 1a3f 6798 27be
00000090: 61f2 ac3e 6a07 43be 180e be3e e497 febe
000000a0: 41b2 89be 6fc9 d43e 2f6a 98bd e261 af3e
000000b0: 5010 dabe 5279 313f 0da3 d8be 1986 853e
000000c0: a7f2 633f 6236 79be eab5 9b3e 89c1 0abf
000000d0: 0351 e43e 68c8 b43e 971c b43e 36b3 073f
000000e0: 9c76 9a3e 4501 d23e d53b e43e 8f3f b23e
000000f0: 67a2 20bf 480d 1c3f f0ea 6ebe 757e f03e
00000100: 592e d93e 0c6e 263f a1d2 9e3e 3c6a fd3e
00000110: 7ba4 193f c6dd 9b3e 2f22 97be 2a23 7b3e
00000120: 4d9f c3bd 9b09 c43e 02a8 8b3e 4c6e d33e
00000130: eb79 d93b d30c 8cbe a748 b83e e938 2bbe
00000140: 0a37 b43e 28d9 babe 7dd2 ecbe 81f4 043e
00000150: 8565 143f a159 c53e 7d25 c1be 8279 b03e
00000160: a095 94be 346d b13d 8e6f cfbd ca85 c93e
00000170: 53ce 87be 8196 c33e 98dd f33e 3988 34be
00000180: 4a63 a63e ecd8 d2be dd12 a53e 1b45 793d
00000190: 8cc8 e53e dd4d 073f 2dad c4be c335 203d
000001a0: 779e a13e 1744 1abe a182 8f3e 5dba c4be
000001b0: a188 90be 5ba8 c4be 5be9 60be 8c1b df3d
000001c0: 0265 d0bd 9b9d c73e 6e89 28be 1842 bb3c
000001d0: b01a 7b3f c7d9 eebd 7200 52be 54b7 c4be
000001e0: e692 87bd d170 37be 02cb 933e 24d6 ef3e
000001f0: de6f b43e 3d9f 06be 35b0 cbbd 2e67 37be
00000200: 12e7 40be 3389 c63e bc21 00bd 902c 243d
00000210: 8265 81be 6750 3e3e 5702 83bd 98eb a3be
00000220: 3fc7 613e 7d87 523e f8ff bbbd ef7b 703e
00000230: c558 3dbe 1ed5 f73e aed3 423e eb22 163e
00000240: 3790 aa3e fd94 b2bc 7f33 9d3e 4109 5dbe
00000250: a619 b43e 3f36 82be 4260 0ebf 9a21 cd3e
00000260: 5492 f73d 92b6 0f3f 2ff0 e3bd d4ca 90bb
00000270: f1d1 31be ad33 a3bd 9f7c 3dbd 05bd 9b3e
00000280: aa73 36be c180 b1bd ba5f d83e 32c2 1dbd
00000290: ea15 c73e b1a3 b0be 5b11 56bc 9d14 90be
000002a0: 1889 15bc 1072 753e 5f0e 89be aded 333e
000002b0: 08ee 133e 5cc7 733e e3a3 c33e 7743 003f
000002c0: e940 e93e cf0a 89be 80c1 943e 3f3a d73e
000002d0: 952b ab3e b8c3 14be b2ef bd3e 65f8 183f
000002e0: 603f 88be f86b a23e aa2c 79be d50a ff3e
000002f0: b2c9 0a3f 1b37 c8bc 9b69 af3e a15f ebbd
00000300: ab69 0a3e 3e2f 1ebe f828 1b3f 33e8 c7bc
00000310: 914e 1b3f 8bbd a5bc c7cc cb3d 6d5c 293f
00000320: cca4 e8bd 413d d1bd 7997 5abe 75df 5dbd
00000330: 563f 9dbe 8d95 24be a019 ee3e d481 27be
00000340: e0d8 c43e 6e0e f63e fc44 9c3e 8d3d 99be
00000350: 1927 d93e d303 de3e 18d8 bb3e d66e 91bd
00000360: b8b2 a13e 0afc 043f 22fa a1be 4252 cdbd
00000370: 523f 91be 40c2 a93e 8d48 f13e b9ee 10bd
00000380: 4955 c53e 931a 28be bf61 cf3e aa7e 87be
00000390: c3d3 013f ffc5 24be bbe2 893e d5ae d0bd
000003a0: b3c8 0c3e 6262 b83e 5ff7 9e3d 22db 17be
000003b0: 762a 03be 1b34 41be 1c36 42bd c57d 223e
000003c0: cf56 b53d c8e8 da3e 62b7 963e bc83 153f
000003d0: c6ff e53e 0413 f3bd 2663 cf3e 9cf7 9b3e
000003e0: 35be 773e 9b60 8abe c42f 0f3e 356c 3cbe
000003f0: 6263 e6be 1dc6 0d3e 6e30 0e3d 66fa e93e
-0.46648338 0.39789626 0.8983678 0.20228714 0.64293665 0.41960844 0.28418866 -0.4667445
0.29788786 0.78235453 0.22287792 0.587644 -0.06662467 0.4981919 0.68699765 0.26422745
-0.17938234 0.5405172 0.47487468 -0.28746456 0.6387287 0.44310743 0.7493656 -0.6569887
0.26563853 -0.28678763 0.37524173 0.36438996 0.389657 0.5191682 0.19059066 0.42087397
-0.20989168 -0.2574669 0.6021671 -0.1636673 0.3377867 -0.19045797 0.37120128 -0.49725258
-0.2689381 0.41559932 -0.07442128 0.34254366 -0.4259057 0.69325745 -0.42311898 0.2607887
0.89042133 -0.24337152 0.30412227 -0.5420156 0.44593057 0.35309148 0.35178062 0.5300783
0.30168617 0.41016594 0.44576898 0.34814116 -0.62747806 0.60957766 -0.23331809 0.4697148
0.42418173 0.6501167 0.31020072 0.49495113 0.600166 0.30442637 -0.29518268 0.24525133
-0.095518686 0.38288578 0.27276617 0.41295087 0.006636848 -0.27353534 0.3599293 -0.16720928
0.3519824 -0.36493802 -0.4625434 0.12983896 0.57967407 0.38544944 -0.37723914 0.34467703
-0.29020405 0.08663407 -0.10128699 0.39359885 -0.265246 0.38200763 0.4763 -0.1763009
0.32497627 -0.41181123 0.32240954 0.06085692 0.44879568 0.52853185 -0.38413373 0.03911377
0.31566212 -0.15065037 0.2802935 -0.38423434 -0.2822924 -0.38409695 -0.21964018 0.10893926
-0.10175516 0.3898743 -0.16458675 0.022858664 0.98087597 -0.116626315 -0.20507982 -0.38421118
-0.066198155 -0.1791413 0.2886582 0.46843064 0.35241598 -0.13146682 -0.09945718 -0.17910454
-0.18838146 0.3877655 -0.03128217 0.04008156 -0.25272757 0.18585359 -0.06396931 -0.3201568
0.22048663 0.20559497 -0.091796815 0.23484777 -0.18490894 0.48404783 0.19026062 0.14661758
0.33313152 -0.021799559 0.3070335 -0.21585561 0.35175818 -0.2543201 -0.5561563 0.40064698
0.12088457 0.56137955 -0.11129796 -0.0044187102 -0.17365243 -0.07968841 -0.046261426 0.30417648
-0.1781756 -0.08667136 0.42260534 -0.038515277 0.38883907 -0.34499887 -0.013065661 -0.28140727
-0.009126924 0.23969293 -0.26768777 0.17571135 0.1444627 0.23806518 0.38210973 0.50102943
0.45557335 -0.2676606 0.2905388 0.42036626 0.33431688 -0.14527786 0.37096936 0.5975402
-0.2661085 0.31723 -0.24333444 0.49812952 0.5421401 -0.024440339 0.34260258 -0.11492849
0.13516872 -0.15447709 0.6060939 -0.024402713 0.6066676 -0.020231983 0.099511676 0.66156656
-0.113595575 -0.102167614 -0.21346845 -0.054168183 -0.30712384 -0.16072674 0.46503925 -0.16358119
0.38446712 0.48057884 0.3052138 -0.29929772 0.42412642 0.43362293 0.36688304 -0.071012184
0.31581664 0.5194708 -0.3163615 -0.10025455 -0.28368622 0.33156013 0.47125664 -0.035383914
0.3854163 -0.16416387 0.40504262 -0.26463825 0.5071375 -0.16091155 0.26930794 -0.101895966
0.13748436 0.3601256 0.07762026 -0.14829686 -0.12809166 -0.18867533 -0.047414884 0.1586829
0.08854448 0.42755723 0.29436785 0.58404136 0.44921702 -0.11868861 0.40505332 0.30462348
0.24193652 -0.2702683 0.13983065 -0.18400653 -0.44997698 0.13845105 0.034714155 0.4569885

l1.bias f4 [8]
00000000: 8ae7 ee3e 782a 3a3f 5583 8b3f 72ae c43e
00000010: 6d8a 113f d10e 893e 8c3c 993e 4661 e63e
0.46661025 0.7272105 1.0899454 0.3841434 0.56851846 0.26769117 0.29929006 0.4499609

l2.weight f4 [8, 8]
00000000: 4b48 ae3f 4a97 8cbe 16c2 c9bd fdec 553f
00000010: 5c6d 6c3e 4a04 713f 4732 b23e 1c2d 3d3f
00000020: d5b4 883e 80b9 35bb 3999 4cbe 4c3f a1be
00000030: 100f cfbd d07c ab3c b660 2ebe c82a 0cbd
00000040: b30e a53e 8824 2abf 84fc 2a3d b3b2 6a3d
00000050: 7e50 163f 3dba 243f 9d3c 0e3f 45bf 1a3f
00000060: e982 793f 405b 4d3f 7371 2fbf 6a0f 103f
00000070: d5e9 30bf 5d90 813d 3c2d 173f acf1 43bd
00000080: 8f57 fd3d 4827 a63d 6049 53bf 420e a73d
00000090: 094d a2bc 4c12 003f 0adf 483f 8de1 233f
000000a0: 25e5 90be d0f5 7fbd d6d9 bf3f be41 52bf
000000b0: f18e 513f 0a31 95bd e705 493d 707a 4d3f
000000c0: 34c1 413f ba3e 65bf 186b b03e 44df 6cbd
000000d0: ebc5 0a3f d9d8 0f3f 6a18 243f fed7 d93e
000000e0: 87a3 7f3e 1aa2 a13f e9b5 753f 4c4e 5c3f
000000f0: 3301 b0bd b5af 61bf 47aa 07bf a6a4 71bf
1.3615812 -0.27459174 -0.09851472 0.8356474 0.23088592 0.9414717 0.34803984 0.73896956
0.26700464 -0.0027728975 -0.19980325 -0.31493604 -0.10110295 0.020933539 -0.1702908 -0.034220487
0.32237777 -0.6646199 0.041744724 0.057299327 0.5871657 0.6434668 0.5556124 0.60448104
0.9746538 0.8021736 -0.68532485 0.5627352 -0.691068 0.06326363 0.590534 -0.047837898
0.12370216 0.08112961 -0.82533836 0.08157016 -0.019812124 0.5002792 0.7846533 0.6401604
-0.28299823 -0.062490284 1.4988353 -0.82131565 0.81858736 -0.07284744 0.049077895 0.8026495
0.7568543 -0.8954884 0.34456706 -0.05783011 0.5420825 0.5619026 0.6409975 0.425476
0.24964724 1.2627594 0.959807 0.8605697 -0.08593979 -0.8815873 -0.529942 -0.9439186

l2.bias f4 [8]
00000000: 9611 543d d00e adbe c61f da3d 1520 cb3e
00000010: 235d ac3d 63c1 1e3f 4927 bdbc 54a8 2c3f
0.051774584 -0.33800364 0.106505916 0.39672914 0.08416202 0.62013835 -0.023090022 0.6744435

l3.weight f4 [4, 8]
00000000: ad1b e8bf d41f b0be ce39 febe bb37 d6be
00000010: 37ac 48be 3899 7d3f f53c 83bf 2755 a53e
00000020: bc66 8b3e 9ebb 3c3e 9d62 f13d bc7c fd3e
00000030: ce5d 2b3f e5a8 a5bf 7182 a13d f901 83bf
00000040: a8b5 2dbe 1570 4fbe e2e3 08bf 09b4 0f3f
00000050: cb94 04bf d733 aebf 3319 e5be 01cb 2a3f
00000060: f607 9b3e 0325 42be bec1 f73e 8582 1bbf
00000070: 6cd4 abbd f7eb ee3e 62f3 fd3e 209e aebf
-1.8133446 -0.34399283 -0.49653476 -0.41839394 -0.19596945 0.9906192 -1.0252978 0.3229153
0.27226818 0.18430945 0.11786387 0.49509227 0.6694001 -1.2942168 0.07886208 -1.0234977
-0.16963828 -0.202576 -0.5347272 0.56134087 -0.5178954 -1.360957 -0.44745788 0.6671601
0.3027951 -0.18959431 0.4839 -0.6074603 -0.08390126 0.46664402 0.4959975 -1.3642006

l3.bias f4 [4]
00000000: db78 ea3e ad3b dbbe 82f3 563e effc 11be
0.4579533 -0.42818967 0.20991328 -0.14256643
